model.tflite (tflite, 219596 bytes, 10 tensors)

arith.constant f4 [64]
0.2906357 -0.2603492 0.30432782 -0.20768547 0.04065226 0.4802278 -0.17241038 -0.069129094
-0.05339634 -0.16923665 0.30237705 0.51001 -0.0737869 -0.07475383 0.2630495 -0.07233642
0.49460608 -0.04294146 -0.11943822 -0.27840626 -0.1325145 0.15637694 0.44285065 -0.07287239
0.015093783 -0.22973281 0.26421016 -0.09042381 -0.06273111 0.20893523 -0.08708439 -0.06337502
-0.066765994 -0.10618483 -0.051959544 -0.060276903 0.57669693 -0.060155082 -0.17798056 -0.17494905
0.3154279 -0.31189123 -0.23730072 -0.11877711 -0.28608155 0.1719351 -0.40591457 -0.10619845
0.26148945 -0.3157539 -0.03984692 0.03430356 0.49778935 -0.04160636 -0.32578996 0.20405461
0.2670988 -0.07338914 -0.088984676 0.52046317 -0.13347773 -0.06345901 0.34681883 0.12927544
00000000: 34ce 943e 7e4c 85be dbd0 9b3e 80ab 54be
00000010: fc82 263d 6be0 f53e 598c 30be 8e93 8dbd
00000020: 1fb6 5abd 5f4c 2dbe 2ad1 9a3e 0490 023f
00000030: 961d 97bd 8918 99bd 6dae 863e 1e25 94bd
00000040: 023d fd3e 62e3 2fbd 079c f4bd 448b 8ebe
00000050: e2b1 07be 4721 203e 52bd e23e 1f3e 95bd
00000060: ea4b 773c 143f 6bbe 8e46 873e 1e30 b9bd
00000070: 2b79 80bd 1ef3 553e 4d59 b2bd c3ca 81bd
00000080: 9cbc 88bd 6f77 d9bd 88d3 54bd eae4 76bd
00000090: 69a2 133f 2d65 76bd 8940 36be d825 33be
000000a0: c47f a13e 35b0 9fbe f6fe 72be 6a41 f3bd
000000b0: 4879 92be c10f 303e 09d4 cfbe 937e d9bd
000000c0: f2e1 853e 7faa a1be 8636 23bd e481 0c3d
000000d0: 3fde fe3e 6e6b 2abd f1cd a6be b1f3 503e
000000e0: 2dc1 883e 0c4d 96bd 993d b6bd 133d 053f
000000f0: 63ae 08be ccf6 81bd 3d92 b13e c860 043e

arith.constant1 f4 [128]
-0.052404918 -0.048832744 -0.27971315 -0.0669494 -0.055471793 0.08328307 -0.0054472894 0.18338907
-0.12896076 -0.2186502 -0.024398217 -0.7502815 -0.05854887 -0.146284 -0.031527344 -0.078316115
0.23297279 -0.04227331 -0.04207868 -0.030242931 -0.0340638 0.0053062374 0.0015870689 -0.06762965
-0.03796646 -0.027308725 0.095654085 -0.010618599 -0.05234032 -0.04809881 -0.061486345 -0.063819565
-0.072689205 -0.038357843 -0.051426485 -0.07874387 0.18660234 -0.06169317 -0.10820365 0.049655434
-0.06529988 -0.044142246 -0.09106791 -0.16940269 0.14225803 -0.11360019 -0.04626999 -0.057032228
-0.08781234 -0.044827152 -0.04805528 -0.052593052 -0.019890064 -0.0861067 0.27435496 -0.06701968
0.5145952 -0.06281367 -0.11332282 0.10790162 0.07633109 -0.08860823 -0.08078514 -0.037776824
-0.37093943 -0.06162432 -0.049612567 -0.067310855 -0.06281963 -0.19066091 -0.2483006 -0.0588504
0.12732433 -0.052315008 -0.03046254 -0.022566983 -0.06258472 -0.06590456 -0.062832795 -0.08164014
-0.08775365 -0.04772347 -0.039254304 -0.47431114 -0.03536997 -0.039837714 0.61765283 -0.13471559
-0.07858469 -0.05963962 -0.00096312736 0.091039 -0.10523294 -0.05536562 -0.16162996 0.45937943
-0.05236513 -0.13430591 -0.06326949 -0.032800168 -0.012308207 -0.03277458 -0.3217049 -0.074685045
-0.025224222 -0.037950736 -0.41487142 0.019121327 -0.028515661 -0.05689534 -0.06810256 -0.09387234
-0.039223824 0.0044090776 -0.025831353 0.089761674 -0.16539288 -0.03160539 -0.01295555 -0.04927258
-0.030667378 -0.0587885 -0.11873162 0.06810258 -0.08298195 -0.067759715 -0.062181365 -0.1367127
00000000: 8aa6 56bd d804 48bd 9036 8fbe c41c 89bd
00000010: 6436 63bd 5090 aa3d 2d7f b2bb 58ca 3b3e
00000020: 4a0e 04be d7e5 5fbe c5de c7bc 7312 40bf
00000030: f1d0 6fbd 79cb 15be d122 01bd 3364 a0bd
00000040: 6b90 6e3e c726 2dbd b25a 2cbd 06c0 f7bc
00000050: 7c86 0bbd f2df ad3b 3205 d03a 6a81 8abd
00000060: b882 1bbd 8cb6 dfbc 4ae6 c33d a2f9 2dbc
00000070: ce62 56bd 4203 45bd 1bd9 7bbd d5b3 82bd
00000080: 14de 94bd 1d1d 1dbd 94a4 52bd 7744 a1bd
00000090: af14 3f3e fab1 7cbd e099 ddbd 7f63 4b3d
000000a0: f2bb 85bd 80ce 34bd d081 babd e677 2dbe
000000b0: 17ac 113e 37a7 e8bd 9a85 3dbd a09a 69bd
000000c0: f5d6 b3bd ad9c 37bd 9dd5 44bd d06b 57bd
000000d0: 7df0 a2bc b658 b0bd 4178 8c3e 9d41 89bd
000000e0: 83bc 033f 74a4 80bd cb15 e8bd 86fb dc3d
000000f0: 7953 9c3d 3b78 b5bd ae72 a5bd dfbb 1abd
00000100: c6eb bdbe c869 7cbd 8c36 4bbd 46da 89bd
00000110: 94a7 80bd 9d3c 43be 8342 7ebe 1e0d 71bd
00000120: 4f61 023e 4348 56bd 948c f9bc 65de b8bc
00000130: 6b2c 80bd f8f8 86bd 7bae 80bd f232 a7bd
00000140: 30b8 b3bd af79 43bd 1fc9 20bd e9d8 f2be
00000150: 1ae0 10bd df2c 23bd 7f1e 1e3f e2f2 09be
00000160: 03f1 a0bd ad48 74bd 627a 7cba a872 ba3d
00000170: 5e84 d7bd 0fc7 62bd 5382 25be c833 eb3e
00000180: d27c 56bd 7d87 09be 6f93 81bd 7859 06bd
00000190: 5da8 49bc a33e 06bd 81b6 a4be 79f4 98bd
000001a0: 07a3 cebc 3b72 1bbd 076a d4be 54a4 9c3c
000001b0: ad99 e9bc 170b 69bd 5b79 8bbd 2440 c0bd
000001c0: 29a9 20bd 067a 903b 469c d3bc f8d4 b73d
000001d0: c05c 29be a774 01bd 8443 54bc 0bd2 49bd
000001e0: 273a fbbc 36cc 70bd 9029 f3bd 5e79 8b3d
000001f0: 71f2 a9bd 9bc5 8abd e3b1 7ebd 6afe 0bbe

arith.constant2 f4 [2]
0.36316296 -0.363145
00000000: 7ff0 b93e 24ee b9be

arith.constant3 f4 [5]
-0.07250025 -0.05160805 -0.40898982 -0.0752092 -0.2620279
00000000: 037b 94bd f662 53bd 1d67 d1be 4807 9abd
00000010: 8528 86be

arith.constant4 f4 [2, 64]
-0.65085596 1.3651685 0.92407393 -0.06817874 -0.3508188 -0.5610353 0.5767974 -0.08827792
-0.18006107 0.070216514 0.23907126 -0.65669185 -0.21989116 0.1427755 0.1339186 -0.07162548
-0.6653316 -0.10113923 -0.21507151 0.17009902 -0.17459954 -0.61760986 -0.4009783 -0.52868795
-0.43105403 -1.1620237 -0.8142847 -0.08686602 0.07315833 -0.7690849 0.28813103 0.24236704
0.010936046 0.11732632 -0.09106273 0.050080806 -0.30574912 -0.24788165 -0.34356883 -0.22906613
0.03106663 0.8209731 0.34446886 0.20020644 0.7674528 -0.039662216 -0.052127365 0.000665751
-0.04804783 -0.30320027 0.6450609 0.30186662 0.17829584 -0.28817803 0.42812884 -1.1879754
0.44997433 -0.0072499523 -0.32806966 0.71101665 0.096984036 1.1523045 -0.23211907 -0.5803134
0.70904344 -1.7918491 -0.97713643 0.09473456 0.46000177 0.78131 -0.68811166 -0.2001556
-0.14084248 0.3936778 -0.11745451 0.33146265 -0.0233708 0.26060882 -0.15050952 -0.07487575
0.6311291 -0.2601528 -0.31657496 0.20374228 0.14763543 0.29699725 0.4675106 0.4123828
0.4520952 1.4848989 0.67599773 0.019360296 0.024724139 0.791533 -0.2788082 0.1948446
-0.023547124 -0.26943174 -0.0255335 0.19450457 0.5074936 0.026849447 0.022430303 0.16020286
-0.19987309 -0.30886227 -0.26567852 0.12798601 -0.64952296 -0.00075701025 -0.038712192 0.036623016
0.20669359 0.114288196 -0.86520565 -0.36208513 0.1015598 0.21984874 -0.33458722 1.139798
-0.627667 -0.04854145 -0.0057437764 -0.7713264 0.19465338 -1.3980544 0.39602986 0.9313814
00000000: 7f9e 26bf d7bd ae3f 1c90 6c3f 4ca1 8bbd
00000010: 869e b3be 02a0 0fbf ffa8 133f 0ecb b4bd
00000020: ee61 38be adcd 8f3d 19cf 743e f51c 28bf
00000030: 262b 61be be33 123e f521 093e 61b0 92bd
00000040: 2c53 2abf 1622 cfbd b53b 5cbe 702e 2e3e
00000050: 39ca 32be ae1b 1ebf 074d cdbe 1858 07bf
00000060: 1db3 dcbe 31bd 94bf f674 50bf d0e6 b1bd
00000070: 09d4 953d bfe2 44bf e985 933e 112f 783e
00000080: 1a2d 333c c848 f03d 197f babd 8821 4d3d
00000090: 268b 9cbe b0d4 7dbe 41e8 afbe 5090 6abe
000000a0: 727f fe3c 4b2b 523f 395e b03e eb02 4d3e
000000b0: c977 443f d974 22bd 8183 55bd cb85 2e3a
000000c0: cdcd 44bd 113d 9bbe b622 253f 438e 9a3e
000000d0: 2f93 363e 128c 93be b433 db3e 940f 98bf
000000e0: 0963 e63e 0291 edbb bff8 a7be 3005 363f
000000f0: 919f c63d b77e 933f 9fb0 6dbe 6b8f 14bf
00000100: df83 353f 505b e5bf 9d25 7abf 3104 c23d
00000110: 5a85 eb3e ef03 483f 1628 30bf 97f5 4cbe
00000120: 0339 10be 2390 c93e fd8b f0bd 79b5 a93e
00000130: 1f74 bfbc 856e 853e 2b1f 1abe 7558 99bd
00000140: ad91 213f bf32 85be 1d16 a2be d1a1 503e
00000150: be2d 173e 0610 983e 8d5d ef3e d723 d33e
00000160: 0679 e73e 2b11 be3f 300e 2d3f 7c99 9e3c
00000170: 478a ca3c e8a1 4a3f f3bf 8ebe 5885 473e
00000180: e6e5 c0bc f5f2 89be a12b d1bc 352c 473e
00000190: 1aeb 013f 5ff3 db3c c1bf b73c 380c 243e
000001a0: 88ab 4cbe 3223 9ebe 0407 88be c40e 033e
000001b0: 2347 26bf 1972 46ba ad90 1ebd 0402 163d
000001c0: 7ca7 533e ee0f ea3d 1e7e 5dbf 3963 b9be
000001d0: 96fe cf3d 0720 613e 044f abbe e7e4 913f
000001e0: c9ae 20bf 66d3 46bd 4a36 bcbb a675 45bf
000001f0: 3753 473e 72f3 b2bf 6dc4 ca3e 036f 6e3f

arith.constant5 f4 [5, 64]
-0.07591408 -0.6057063 0.21732163 -0.5103941 0.50893164 -0.7721796 0.1704789 -0.21321017
0.010194894 -0.0099186255 -0.611988 -0.68264526 -0.109365195 0.0780069 -0.014258058 -0.2490213
-0.06409344 0.03943784 0.14132568 -0.36661628 0.13959943 0.30860066 0.22534183 -0.22871253
-0.15706727 -0.6543359 0.04365267 -0.045476995 -0.0279379 0.19467685 0.01119386 -0.110256694
-0.23964734 0.0754911 -0.13121267 0.10872505 0.0077980147 -0.14123097 -0.0974533 -0.3942465
-0.6160016 -0.009446596 0.10556478 -0.24115774 0.13332023 1.9366494 -0.44423988 -0.06686957
-0.22558622 -0.35057178 -0.98925984 0.64401597 -0.2619202 0.20900144 -1.0318199 0.39690137
0.8245104 0.16060783 -0.08811775 -0.017228981 -0.2452552 0.080393046 0.4689952 0.12054377
0.13336526 -0.035093065 -0.32674065 -0.7853943 0.20624487 -0.7351934 0.08409071 0.13757971
-0.22233301 0.026765037 -0.061117295 -0.05465119 0.044651166 0.22244169 0.15974496 -0.14187962
0.18186092 0.7121344 -0.07453136 -0.7982552 -0.22709988 0.36859196 0.12407585 0.007448024
0.4555681 1.8208398 -0.37686875 -0.012691324 -0.10140903 0.24033694 -0.17525613 -0.043683335
0.28013036 0.108755484 -0.08969811 0.008957047 -0.33675376 -0.25525784 0.08348001 -0.23142332
0.11384507 0.071904264 -0.07777501 -0.119857945 0.038768668 0.15393066 -0.008413552 0.002598035
0.21156137 -1.1236519 -0.020331303 0.0049919067 -0.302672 -0.1743421 0.25619733 -0.4782377
-0.17285895 0.2509628 0.14055826 0.058460977 -0.48408413 -0.090538345 0.86061716 -0.1859183
-0.011502415 0.40516195 0.47394404 -0.22135971 -0.23830952 0.022003386 0.044624817 0.2168794
-0.17396519 -0.010271699 0.18111898 -0.20754816 0.22072823 -0.036924265 -0.34285298 0.22444606
0.49352026 -0.08738112 0.19823717 -0.94076663 -0.102666155 0.13019578 -0.5988263 -0.08581477
0.059446294 -0.097486734 0.09590622 0.22140501 -0.10322924 -0.17446356 0.0049647097 0.03220643
0.26149097 -0.1981783 -0.18174782 0.13208233 -0.4617972 0.22870526 0.04807172 -0.113650456
0.08318807 -0.55827266 0.20381376 -0.087110475 0.4600182 -0.036988594 0.24416418 0.20197126
0.42838556 -0.11109455 -0.22602867 0.095143706 -0.45368874 0.06258459 0.22223833 0.28000763
0.5904135 0.15268947 0.13344394 -0.11023819 0.1406316 0.066936724 0.5805244 0.20758483
-0.02383926 -0.13259836 0.38489446 -0.4264626 0.19823585 0.023469197 0.05579421 -0.12561588
0.028224314 -0.21452832 0.14252384 -0.11348887 -0.2168594 -0.057243593 0.07123162 0.16307263
0.39120275 -0.19473664 -0.263526 -0.2542293 0.055960357 -0.2538327 -0.007772872 0.16843072
-0.022063522 -0.031445403 0.3265693 0.21549311 -0.03780383 0.24089691 -0.16014369 -0.20626198
0.122517884 -0.12524755 0.17169176 -0.07630683 -0.34359205 -0.018729571 0.05055531 -0.38779965
-0.004506414 -0.37458804 0.20732535 -0.042099774 -0.020300282 0.24388145 0.6832228 0.14930291
0.049925305 -0.09725225 0.10807632 0.26165503 -0.039587915 0.28286105 -0.3736767 0.064819105
-0.57530165 -0.02748595 0.102139 -0.25411275 -0.36669722 0.1408364 0.14042662 -0.23582698
00000000: d778 9bbd 910f 1bbf 9089 5e3e 30a9 02bf
00000010: 5849 023f 90ad 45bf 0592 2e3e c453 5abe
00000020: 7c08 273c bb81 22bc 3fab 1cbf d7c1 2ebf
00000030: dcfa dfbd 15c2 9f3d a19a 69bc 71ff 7ebe
00000040: 6c43 83bd 9389 213d aeb7 103e 21b5 bbbe
00000050: 27f3 0e3e e800 9e3e 02c0 663e 9e33 6abe
00000060: 3ed6 20be 8f82 27bf 24cd 323d 1646 3abd
00000070: 06de e4bc 5e59 473e 7466 373c 43ce e1bd
00000080: 1d66 75be 149b 9a3d 9d5c 06be 3dab de3d
00000090: 7d86 ff3b da9e 10be 9995 c7bd adda c9be
000000a0: 48b2 1dbf e5c5 1abc 5932 d83d 0ef2 76be
000000b0: 1985 083e 21e4 f73f 6973 e3be eaf2 88bd
000000c0: 1300 67be 257e b3be 2240 7dbf 3bde 243f
000000d0: 681a 86be 7904 563e ad12 84bf a836 cb3e
000000e0: 1d13 533f 6176 243e 1477 b4bd cb23 8dbc
000000f0: 2e24 7bbe 1ca5 a43d 2420 f03e a7df f63d
00000100: e790 083e bfbd 0fbd 8d4a a7be 9a0f 49bf
00000110: db31 533e a235 3cbf c037 ac3d b2e1 0c3e
00000120: 44ab 63be 5a42 db3c 2156 7abd edd9 5fbd
00000130: 24e4 363d c1c7 633e 2f94 233e e448 11be
00000140: c039 3a3e 714e 363f e6a3 98bd 745a 4cbf
00000150: df8c 68be 16b8 bc3e 7b1b fe3d 8e0e f43b
00000160: 3940 e93e 4711 e93f f1f4 c0be 45ef 4fbc
00000170: 8aaf cfbd e31a 763e 5876 33be 4ced 32bd
00000180: 3f6d 8f3e 32bb de3d a5b3 b7bd 94c0 123c
00000190: fd6a acbe 28b1 82be 91f7 aa3d 3cfa 6cbe
000001a0: 9b27 e93d 8b42 933d 8148 9fbd 1578 f5bd
000001b0: e5cb 1e3d 00a0 1d3e ffd8 09bc cb43 2a3b
000001c0: 8ba3 583e d3d3 8fbf d58d a6bc 2693 a33b
000001d0: d3f7 9abe bc86 32be 4c2c 833e 92db f4be
000001e0: f001 31be 327e 803e 81ee 0f3e c774 6f3d
000001f0: e0d9 f7be 2b6c b9bd 6851 5c3f 5e61 3ebe
00000200: a074 3cbc 6371 cf3e cba8 f23e 1fac 62be
00000210: 6907 74be 7240 b43c 83c8 363d a215 5e3e
00000220: ee23 32be a14a 28bc 4177 393e 8187 54be
00000230: 9506 623e e63d 17bd 6d8a afbe 30d5 653e
00000240: b0ae fc3e dff4 b2bd affe 4a3e 15d6 70bf
00000250: a242 d2bd 0b52 053e ae4c 19bf a7bf afbd
00000260: f57d 733d 20a7 c7bd 7b6a c43d ffb7 623e
00000270: da69 d3bd 93a6 32be 01af a23b e4ea 033d
00000280: 25e2 853e 41ef 4abe 1a1c 3abe 9740 073e
00000290: af70 ecbe b631 6a3e dae6 443d 92c1 e8bd
000002a0: 825e aa3d f5ea 0ebf 8eb4 503e fa66 b2bd
000002b0: 8187 eb3e 5a81 17bd 2d06 7a3e 8ed1 4e3e
000002c0: 5a55 db3e 8a85 e3bd 0f74 67be b4da c23d
000002d0: e449 e8be 592c 803d 7292 633e 295d 8f3e
000002e0: 5725 173f a15a 1c3e 87a5 083e 8fc4 e1bd
000002f0: bb01 103e 1f16 893d 3f9d 143f 1e91 543e
00000300: 8d4a c3bc ddc7 07be e310 c53e 4e59 dabe
00000310: 57fe 4a3e 7942 c03c 7888 643d 73a1 00be
00000320: ad36 e73c 50ad 5bbe c5f1 113e da6c e8bd
00000330: 6410 5ebe 4278 6abd e2e1 913d 83fc 263e
00000340: ba4b c83e 0b69 47be e1ec 86be 582a 82be
00000350: b036 653d 5cf6 81be 94b3 febb 1a79 2c3e
00000360: 8fbe b4bc e5cc 00bd 1734 a73e 3aaa 5c3e
00000370: 30d8 1abd aead 763e b5fc 23be 5736 53be
00000380: a8ea fa3d e540 00be f7cf 2f3e c146 9cbd
00000390: 4ceb afbe c26e 99bc 1613 4f3d ad8d c6be
000003a0: 8aaa 93bb 01ca bfbe 194d 543e d070 2cbd
000003b0: c74c a6bc 0fbc 793e b0e7 2e3f dde2 183e
000003c0: 7a7e 4c3d 302c c7bd 1e57 dd3d a6f7 853e
000003d0: f026 22bd 2ad3 903e 8d52 bfbe e1bf 843d
000003e0: f846 13bf 372a e1bc 412e d13d 111b 82be
000003f0: bdbf bbbe 6b37 103e ffcb 0f3e a17c 71be

arith.constant6 f4 [64, 128]
-0.0842834 -0.10610862 -0.70348614 0.03925095 -0.025381174 -0.042374037 0.08976167 0.5018828
0.1133454 0.1805808 0.0014211703 -0.064856224 0.02733971 1.247097 0.023338065 -0.0349534
0.534902 -0.05272326 -0.07205316 0.054645825 -0.16461878 0.4234583 -0.04896315 -0.060018077
0.012412567 0.04367648 0.23403715 0.027688378 -0.10948975 -0.069150195 0.40170634 -0.13603888
-0.08869886 -0.10060361 0.13287419 -0.44826797 -0.9036456 -0.10044361 0.17085977 0.11916616
0.037395027 -0.030681362 0.2575883 0.087852195 -0.29999655 0.2247434 0.14370207 -0.2236457
-0.14027517 0.12750624 -0.11099895 -0.13789529 -0.39448756 -0.12773235 -1.0027437 -0.06026109
0.15092778 -0.16126987 -0.027713198 0.11866404 -0.3365713 0.17724027 -0.02449269 -0.029839385
-0.28937635 0.16949089 -0.8065136 0.0006636063 -0.12978983 -0.17280702 -0.07340909 0.011939899
0.08218511 0.15753011 0.10421083 0.12899493 0.13252287 -0.07028907 0.07594879 -0.0366299
0.11212344 0.047233175 -0.14960748 0.39126992 -0.06520776 0.115259245 -0.06429958 -0.15815262
0.17254585 -0.019421555 0.12338445 0.08737511 -0.3048047 0.12781332 -0.2904477 0.081742756
0.13254401 -0.11127886 -0.11265737 0.13483131 0.5244062 0.032628544 -0.082176 0.036266148
0.0045360113 0.13628238 -0.66971517 -0.28491724 -0.111184016 -0.10101465 -0.14732009 -0.057576936
0.11846493 -0.031201676 -0.14316587 -0.92177004 -0.18868758 0.14872634 0.13508923 0.004399066
-0.0778231 0.045888383 -0.07602063 -0.26916462 -0.06352531 0.12989104 0.16211593 -0.34525788
0.02856043 -0.086854644 0.120681226 -0.13123107 -0.014560476 -0.033402555 -0.07391758 0.41458988
-0.18155941 -0.8468777 -0.06494188 -0.13641508 0.047610477 -0.24923687 0.04179023 0.12952301
-0.050057683 -0.03706394 0.14185503 0.13944142 -0.094878115 -0.09886456 -0.46819794 0.023240536
-0.099505894 -0.069184005 0.25426862 -0.21443158 0.17045736 0.06831738 0.20245965 0.08494882
-0.09365645 -0.0038976073 -0.116888046 -0.054434396 -0.01911477 0.044954076 -0.20734954 -0.025139358
-0.17435363 -0.024138212 -0.008518098 0.10384181 0.44329262 0.15176518 0.056805715 0.11229156
-0.3617682 0.030761674 0.020882621 0.036513183 0.18260653 0.11990075 -0.094912045 -0.06487962
0.0818745 -0.141468 -0.8201262 -0.7247003 0.31935716 0.16174346 0.00408563 -0.16723017
0.05630567 0.17493357 0.02067543 -0.01835972 0.12654041 1.0820076 -0.049410097 -0.063331455
0.06926538 0.033598125 -0.17408693 -0.2849161 0.08070527 -0.1557522 0.048822954 -0.102430746
-0.14514692 0.09464748 -0.076430276 0.12703608 -0.001919955 -0.0783496 -1.022163 -0.07730121
-0.18970113 0.13252337 0.22495826 0.144493 0.040219065 -0.033494562 0.09862311 0.37136972
-0.2080235 0.052415155 0.14632688 -0.10387221 0.19231504 -0.05059038 0.16201058 -0.13471684
0.14022247 0.020363793 0.20883617 -0.36871046 0.16770105 0.14410411 -0.17593674 0.063509375
-0.21106833 -0.12835662 0.029036403 0.012172304 -0.22403196 -0.06652286 -0.15950651 -0.043257043
-0.056316324 0.055336624 0.1716738 -1.2483824 -0.023821134 -0.12988259 0.1605358 -0.16892019
00000000: c69c acbd 7a4f d9bd ab17 34bf 9bc5 203d
00000010: 2eec cfbc 6690 2dbd f7d4 b73d 647b 003f
00000020: a221 e83d 2cea 383e 9046 ba3a 57d3 84bd
00000030: 87f7 df3c e0a0 9f3f 782f bf3c 4c2b 0fbd
00000040: 56ef 083f 58f4 57bd 9b90 93bd 4dd4 5f3d
00000050: d391 28be 87cf d83e 958d 48bd 84d5 75bd
00000060: 145e 4b3c 1ce6 323d 6fa7 6f3e bdd2 e23c
00000070: 293c e0bd 9e9e 8dbd 74ac cd3e c74d 0bbe
00000080: bfa7 b5bd 4409 cebd 2c10 083e 6183 e5be
00000090: 5155 67bf 61b5 cdbd ddf5 2e3e 630d f43d
000000a0: 872b 193d 7b57 fbbc 9de2 833e daeb b33d
000000b0: 2699 99be 2223 663e a326 133e 6103 65be
000000c0: 4ba4 0fbe ff90 023e 6b53 e3bd 6c34 0dbe
000000d0: 46fa c9be 45cc 02be e859 80bf 55d4 76bd
000000e0: d08c 1a3e ee23 25be ca06 e3bc 2206 f33d
000000f0: 1353 acbe 797e 353e e5a4 c8bc ba71 f4bc
00000100: 2329 94be 058f 2d3e ad77 4ebf ddf5 2d3a
00000110: a0e7 04be 53f4 30be 8157 96bd 919f 433c
00000120: ab50 a83d 934f 213e 7d6c d53d 3f17 043e
00000130: 13b4 073e b7f3 8fbd 0a8b 9b3d 3c09 16bd
00000140: f9a0 e53d 9377 413d b432 19be 8854 c83e
00000150: a58b 85bd 0a0d ec3d 80af 83bd c3f2 21be
00000160: dcaf 303e f419 9fbc fdb0 fc3d b9f1 b23d
00000170: 5d0f 9cbe 7fe1 023e 90b5 94be bf68 a73d
00000180: 9eb9 073e 2ce6 e3bd e8b8 e6bd 3811 0a3e
00000190: 7c3f 063f 82a5 053d e44b a8bd d08b 143d
000001a0: d2a2 943b 9c8d 0b3e 7472 2bbf ace0 91be
000001b0: 72b4 e3bd c5e0 cebd 14db 16be cbd5 6bbd
000001c0: be9d f23d a89a ffbc 139a 12be 1ff9 6bbf
000001d0: 5137 41be b84b 183e d554 0a3e 0a26 903b
000001e0: b861 9fbd 75f5 3b3d b4b0 9bbd f2cf 89be
000001f0: 8f19 82bd 2802 053e b801 263e a4c5 b0be
00000200: 90f7 e93c d9e0 b1bd b827 f73d 7061 06be
00000210: 108f 6ebc 1ed1 08bd 1a62 97bd 2045 d43e
00000220: b6ea 39be facc 58bf 4000 85bd 65b0 0bbe
00000230: 3403 433d f337 7fbe 3b2c 2b3d aea1 043e
00000240: 4909 4dbd 5cd0 17bd 7242 113e bbc9 0e3e
00000250: 754f c2bd 8179 cabd a4b7 efbe f062 be3c
00000260: bfc9 cbbd 58b0 8dbd 7f2f 823e f493 5bbe
00000270: 608c 2e3e fce9 8b3d 9551 4f3e a6f9 ad3d
00000280: f4ce bfbd 006f 7fbb 0063 efbd 9af6 5ebd
00000290: 9496 9cbc c421 383d 7053 54be 0ef1 cdbc
000002a0: c289 32be 80bd c5bc 7e8f 0bbc 04ab d43d
000002b0: 40f7 e23e 5568 1b3e 1cad 683d 1ef9 e53d
000002c0: ae39 b9be e8ff fb3c 0812 ab3c d98e 153d
000002d0: 35fd 3a3e 868e f53d 3f61 c2bd 9bdf 84bd
000002e0: d1ad a73d fddc 10be caf3 51bf f585 39bf
000002f0: c882 a33e 14a0 253e c0e0 853b 633e 2bbe
00000300: c6a0 663d c921 333e 855f a93c 2067 96bc
00000310: cf93 013e 3a7f 8a3f 3e62 4abd ecb3 81bd
00000320: 02db 8d3d 309e 093d d843 32be 86e0 91be
00000330: ce48 a53d 817d 1fbe 94fa 473d 36c7 d1bd
00000340: 65a1 14be 8ad6 c13d 7a87 9cbd bf15 023e
00000350: 00a7 fbba c175 a0bd 3dd6 82bf 1950 9ebd
00000360: 0341 42be 35b4 073e 755b 663e f9f5 133e
00000370: bfbc 243d 9831 09bd eafa c93d 2c24 be3e
00000380: 1d04 55be 46b1 563d b7d6 153e f4ba d4bd
00000390: 3cee 443e dc37 4fbd 1ae6 253e 36f3 09be
000003a0: 7b96 0f3e f8d1 a63c 26d9 553e 9ec7 bcbe
000003b0: d3b9 2b3e 0790 133e c328 34be 3411 823d
000003c0: 4c22 58be eb6f 03be c0dd ed3c 586e 473c
000003d0: a268 65be 233d 88bd ad55 23be 4c2e 31bd
000003e0: f2ab 66bd a8a8 623d 42cb 2f3e ffca 9fbf
000003f0: 8a24 c3bc f1ff 04be 7f63 243e 6af9 2cbe

arith.constant7 f4 [128, 256]
-0.073075205 -0.040888112 -0.034334302 -0.12692402 -0.012687522 0.09702024 -0.10153015 0.075456776
0.07164063 -0.041776683 -0.0053147078 0.018928766 0.011682739 -0.11579517 -0.13437635 -0.077515036
0.038231045 -0.02738188 0.0023030639 -0.12235015 -0.025186747 -0.00092635036 0.08371979 0.013188803
0.07183662 -0.103272036 0.11913526 -0.077140786 0.08835556 0.02884236 -0.08929834 0.12018913
0.0064314306 -0.08597395 -0.10106689 -0.049538642 0.10523536 0.004063338 0.10384303 0.052284747
-0.1333958 -0.0969578 0.088121295 0.11185065 0.028999375 0.09927383 0.03078487 0.11864114
-0.10497278 -0.008142616 0.084282964 0.039007045 -0.059505656 0.012319654 -0.037748937 0.034173667
-0.070883274 0.047304362 -0.0052179396 -0.017378598 0.000607296 -0.058778614 -0.11083695 -0.031546418
-0.014318347 -0.049803525 -0.069022745 0.10357788 0.094890706 -0.086866155 0.06102684 0.02398366
0.039886057 0.0026090061 -0.107154965 -0.11797321 0.070738435 0.11109534 -0.01941675 -0.021586586
-0.12218731 0.046917856 -0.063706756 0.06469052 -0.020629598 -0.007776886 0.029947102 -0.013664693
-0.035035092 0.064150006 0.027901053 0.05125203 -0.105386436 0.04641013 0.09818413 0.020365417
-0.1094605 -0.024950596 0.10142263 -0.15211974 0.057232708 0.0028032362 0.038034957 -0.06294671
-0.09956211 -0.13242759 0.081604056 -0.050018966 0.017792761 0.0019849055 0.08179876 0.014559984
-0.022577574 0.068811536 0.0537942 -0.14116332 0.0565478 0.06912124 0.07095841 0.1107074
0.039649665 0.09141473 0.035748493 0.091309905 0.07139963 0.018886527 0.09245393 -0.03312394
-0.04231295 0.058267236 -0.03153198 0.02745384 0.070552126 0.101655215 -0.124337636 -0.14831963
-0.083113916 0.09880701 0.10509527 -0.07208443 0.11670092 -0.0005789998 -0.08256854 -0.0029392561
0.07811645 -0.0424003 0.07009098 -0.009684116 0.013550856 0.073865406 -0.0873698 -0.024822116
0.015220553 -0.060680926 -0.038902406 -0.031120718 -0.0060301423 0.02259879 -0.0681493 -0.12255334
-0.14307015 -0.08416632 -0.115612924 0.100690305 -0.0061849654 -0.091192394 0.05855888 0.07484406
-0.109618165 0.08227715 0.11461109 -0.110506475 -0.039277542 0.017290145 -0.0042643943 -0.04812852
0.01848662 0.062128976 0.060562193 -0.0931831 0.04346755 -0.070718125 0.10457277 0.020787902
-0.038307905 -0.00038480893 -0.099183716 0.061710984 0.059777707 -0.12748018 -0.028484086 0.0822418
0.07323098 0.03379473 0.08879554 -0.049572933 -0.123616725 -0.00899902 -0.0233775 0.04467351
0.012547642 -0.075231135 0.09140748 -0.08079874 0.11132294 0.015683055 -0.07283756 -0.03749457
0.10533389 -0.036015987 0.032231957 -0.07097425 -0.026862025 -0.06847246 0.038760364 -0.034697264
0.021177977 -0.00090533495 -0.046768486 -0.056099426 -0.0047213607 0.0348365 0.11084077 -0.019340783
0.0008288026 0.0156238675 -0.100563236 0.014695704 -0.090683565 -0.039590783 0.055644322 -0.024248356
-0.12515797 -0.093415156 -0.12001325 -0.11610681 0.009122014 -0.0036959946 -0.104705095 0.046622157
0.1056585 -0.13844939 0.039853662 -0.1047403 -0.035116673 -0.07244427 -0.13400866 -0.06725639
-0.05672902 -0.051810853 -0.14149964 -0.05765173 0.00044214725 -0.034067452 -0.11638555 -0.11583504
00000000: 74a8 95bd 4b7a 27bd 20a2 0cbd 5ff8 01be
00000010: 53df 4fbc 8cb2 c63d 0aef cfbd 1589 9a3d
00000020: 53b8 923d 071e 2bbd 0027 aebb 8010 9b3c
00000030: f568 3f3c 0526 edbd f499 09be 34c0 9ebd
00000040: 2898 1c3d f74f e0bc 00ef 163b b792 fabd
00000050: 7054 cebc 52d6 72ba 4875 ab3d d915 583c
00000060: 141f 933d 4a80 d3bd 30fd f33d fdfb 9dbd
00000070: c3f3 b43d d046 ec3c 0ce2 b6bd b825 f63d
00000080: c0be d23b 1c13 b0bd 28fc cebd 08e9 4abd
00000090: a385 d73d c025 853b a8ab d43d 8828 563d
000000a0: e998 08be d091 c6bd f078 b43d f411 e53d
000000b0: 1990 ed3c 1450 cb3d 8d30 fc3c 20fa f23d
000000c0: f8fb d6bd 9b68 05bc 8c9c ac3d dac5 1f3d
000000d0: 34bc 73bd 60d8 493c a19e 1abd b0f9 0b3d
000000e0: 402b 91bd 38c2 413d 40fb aabb 905d 8ebc
000000f0: f232 1f3a d8c1 70bd 7cfe e2bd d136 01bd
00000100: 8097 6abc c8fe 4bbd cc5b 8dbd a420 d43d
00000110: 0f56 c23d e2e6 b1bd 48f7 793d 6179 c43c
00000120: 905f 233d dcfb 2a3b 1074 dbbd f09b f1bd
00000130: 50df 903d f485 e33d e00f 9fbc 5ad6 b0bc
00000140: 573d fabd f02c 403d b078 82bd 777c 843d
00000150: 67ff a8bc 40d5 febb a053 f53c e0e1 5fbc
00000160: f580 0fbd 1461 833d c090 e43c a6ed 513d
00000170: d8d4 d7bd 8c18 3e3d c314 c93d 60d5 a63c
00000180: d42c e0bd 3165 ccbc abb6 cf3d 47c5 1bbe
00000190: d86c 6a3d 80b6 373b 8bca 1b3d 34ea 80bd
000001a0: 38e7 cbbd 199b 07be 0720 a73d b0e0 4cbd
000001b0: 20c2 913c 3015 023b 1c86 a73d 008d 6e3c
000001c0: 9bf4 b8bc 10ed 8c3d 4f57 5c3d 1e8d 10be
000001d0: aa9e 673d 708f 8d3d a552 913d 90ba e23d
000001e0: b067 223d a537 bb3d 036d 123d b000 bb3d
000001f0: f839 923d ebb7 9a3c 7c58 bd3d f8ac 07bd
00000200: 5850 2dbd a0a9 6e3d ad27 01bd e0e6 e03c
00000210: a27d 903d 9c30 d03d bba4 febd 1ae1 17be
00000220: a137 aabd 545b ca3d 303c d73d 00a1 93bd
00000230: e400 ef3d 05c8 17ba b219 a9bd 89a0 40bb
00000240: 84fb 9f3d f0ab 2dbd dc8b 8f3d 20aa 1ebc
00000250: 6904 5e3c bf46 973d f0ee b2bd c057 cbbc
00000260: a05f 793c 908c 78bd 2158 1fbd e0f0 febc
00000270: 8098 c5bb 1921 b93c dc91 8bbd 3ffd fabd
00000280: fb80 12be 645f acbd 78c6 ecbd b836 ce3d
00000290: 40ab cabb 14c3 babd 70db 6f3d d847 993d
000002a0: 7d7f e0bd ec80 a83d 38b9 ea3d 3851 e2bd
000002b0: 7de1 20bd 10a4 8d3c 55bc 8bbb 6922 45bd
000002c0: 4171 973c f47a 7e3d 1010 783d c8d6 bebd
000002d0: 080b 323d aad4 90bd 402a d63d 644b aa3c
000002e0: c0e8 1cbd 2ec0 c9b9 d520 cbbd a8c4 7c3d
000002f0: 78d9 743d 2a8a 02be 7557 e9bc 646e a83d
00000300: 20fa 953d 586c 0a3d 70da b53d fd0c 4bbd
00000310: c42a fdbd a070 13bc 2c82 bfbc 92fb 363d
00000320: a094 4d3c c812 9abd d833 bb3d cf79 a5bd
00000330: 48fd e33d c079 803c dc2b 95bd e893 19bd
00000340: 4bb9 d73d 8085 13bd a805 043d f35a 91bd
00000350: c00d dcbc 4a3b 8cbd 30c3 1e3d b81e 0ebd
00000360: 707d ad3c 0054 6dba 5090 3fbd 83c8 65bd
00000370: a5b5 9abb b8b0 0e3d 7c00 e33d 9070 9ebc
00000380: 0044 593a 40fb 7f3c 19f4 cdbd 40c6 703c
00000390: 4eb8 b9bd f229 22bd 4deb 633d 7da4 c6bc
000003a0: 6929 00be 7250 bfbd 82c9 f5bd 68c9 edbd
000003b0: 8074 153c 8038 72bb a06f d6bd e0f6 3e3d
000003c0: 7c63 d83d adc5 0dbe 983d 233d 1582 d6bd
000003d0: 80d6 0fbd a95d 94bd 9139 09be b8bd 89bd
000003e0: b05c 68bd 9e37 54bd 48e5 10be 3824 6cbd
000003f0: 00d0 e739 508a 0bbd 8c5b eebd ec3a edbd

functional_1/dense_1/MatMul f4 [256, 48]
-0.03601943 -0.052466944 0.025062501 0.087821096 0.013153091 0.10106973 0.13251387 -0.04727181
-0.001915276 -0.12949641 -0.05237808 0.117050424 -0.042847164 -0.018599696 -0.018944457 -0.07475978
0.004370287 -0.007910892 -0.11809544 -0.02509714 0.010832489 0.106900975 -0.01983241 -0.12973553
-0.064959206 -0.08916588 -0.13229859 -0.0596311 0.057051957 -0.12290313 -0.1350551 -0.013557002
0.039366275 -0.0500544 0.047747836 0.07131095 -0.07387193 0.024255216 -0.08126892 0.112373844
0.065197825 0.10418618 0.008519128 -0.042381383 -0.12547183 -0.028139316 -0.032215744 -0.05060509
0.105343625 0.37151596 -0.16606131 0.7233381 0.05956442 0.46149677 -0.02676135 0.645712
0.31474686 0.62526447 -0.11990673 -0.26620805 0.38843474 -0.47458184 -0.44345412 0.28392285
0.69952244 0.15384911 -0.527185 0.16535732 0.80363077 0.2565905 -0.020050522 -0.26618898
0.41716796 -0.20702876 -0.49015278 -0.41127264 0.6168808 -0.6596161 -0.20223132 -0.450542
0.6441563 -0.50085837 0.1818537 0.12369186 -0.48228225 0.25335002 0.57007056 0.28687558
0.20863447 -0.8611176 0.17296648 -0.6159083 -0.4200714 -0.31295043 0.6474806 -0.18668203
-0.055981684 0.09682432 -0.025270412 0.029637465 -0.06599998 -0.16360621 0.10810932 0.033000026
-0.13839546 -0.05924186 -0.0004242686 -0.038150966 -0.0755636 -0.123673946 -0.02699092 -0.120314784
-0.041928403 0.039687216 0.057532795 0.059129782 0.110087186 0.024522467 -0.069066025 -0.16611235
-0.057569515 0.06422736 -0.039231844 -0.014407874 0.07885936 -0.165534 0.09972949 -0.049623538
-0.09113161 -0.038353883 -0.031824272 -0.09800836 -0.029081026 -0.16775143 0.009031044 -0.036945686
0.025940109 0.045893017 -0.10941398 -0.00832542 -0.112631746 -0.12652667 0.051291533 0.027353013
-0.03374374 -0.0745962 0.09945149 0.05340083 -0.03235408 -0.1740758 0.04080541 0.040305413
-0.024863651 -0.11232824 -0.13182816 -0.11955129 -0.16279747 -0.19821167 -0.0861351 -0.020443918
0.03570007 0.07291326 -0.11427934 0.17961265 -0.13880527 0.23291707 -0.044537824 -0.10380075
-0.04185913 -0.047624633 -0.08552726 -0.0035072784 0.10684896 0.09447987 -0.14984758 0.09409958
-0.026103716 0.0021275 0.107179165 0.030669868 -0.06282408 0.2524128 0.04936096 0.1709564
-0.15420642 0.055321712 0.04411181 -0.013982007 0.019827995 -0.04257928 0.00033708801 -0.10721607
0.038206674 -0.39486063 -0.06540679 -0.1428986 0.00091879244 -0.19267085 -0.18732429 0.06291297
-0.085844815 -0.016851766 -0.07368189 0.44644126 0.13277733 0.40569136 -0.008187608 0.3814433
-0.0049578557 0.40694082 -0.10288138 -0.135071 -0.12652531 -0.31673774 0.06565271 0.17527542
-0.091509715 0.24943633 -0.122588724 0.048822764 0.02111652 0.00706143 -0.006956184 -0.035306532
-0.072335616 -0.09920134 -0.13437188 0.3280111 0.107706144 -0.3065488 0.0011743511 -0.43868774
-0.04717619 0.2913357 0.06457096 0.095445365 -0.019411674 -0.14597256 -0.13813955 -0.10397064
0.02857839 0.07723037 -0.11752136 0.1675142 -0.043819156 -0.0012346682 0.06077148 0.10082401
0.006023083 0.11599175 -0.02814641 -0.097106874 -0.12811515 -0.101507016 -0.056761764 0.09986073
00000000: 1c89 13bd 94e7 56bd e04f cd3c 8cdb b33d
00000010: 1080 573c a6fd ce3d b7b1 073e 16a0 41bd
00000020: 000a fbba b59a 04be 668a 56bd 22b8 ef3d
00000030: 8280 2fbd 645e 98bc 6831 9bbc a81b 99bd
00000040: a034 8f3b b09c 01bc 06dc f1bd 8498 cdbc
00000050: c07a 313c e6ee da3d 9477 a2bc 64d9 04be
00000060: 5509 85bd 9a9c b6bd 4879 07be be3f 74bd
00000070: 50af 693d a3b4 fbbd e24b 0abe 301e 5ebc
00000080: 883e 213d d805 4dbd 3c93 433d 7a0b 923d
00000090: 2b4a 97bd e0b2 c63c 5270 a6bd 4224 e63d
000000a0: 7086 853d 905f d53d d093 0b3c 1a98 2dbd
000000b0: b07b 00be 6c84 e6bc a8f4 03bd 4847 4fbd
000000c0: 66be d73d 5737 be3e fa0b 2abe b02c 393f
000000d0: d2f9 733d 4e49 ec3e 9e3a dbbc 624d 253f
000000e0: 8026 a13e 5511 203f a991 f5bd 6c4c 88be
000000f0: ebe0 c63e 64fc f2be 6b0c e3be 565e 913e
00000100: e713 333f 9f8a 1d3e 99f5 06bf 6e53 293e
00000110: bfba 4d3f d45f 833e fe40 a4bc ec49 88be
00000120: 0a97 d53e 59ff 53be 4ef5 fabe 5492 d2be
00000130: e6eb 1d3f 9adc 28bf ba15 4fbe 71ad e6be
00000140: 6de7 243f 4138 00bf db37 3a3e 2852 fd3d
00000150: b3ed f6be 18b7 813e 25f0 113f 5be1 923e
00000160: 46a4 553e 3472 5cbf 201e 313e 2bac 1dbf
00000170: 9913 d7be 0a3b a0be 4ac1 253f 9329 3fbe
00000180: 0d4d 65bd d44b c63d e503 cfbc 45ca f23c
00000190: ff2a 87bd 6388 27be 6b68 dd3d 092b 073d
000001a0: 8ab7 0dbe 98a7 72bd 5e70 deb9 3044 1cbd
000001b0: 17c1 9abd c448 fdbd 101c ddbc 9967 f6bd
000001c0: 1ebd 2bbd 108f 223d 82a7 6b3d 1232 723d
000001d0: 6475 e13d 57e3 c83c 7d72 8dbd 5b19 2abe
000001e0: 03ce 6bbd a289 833d 92b1 20bd 010f 6cbc
000001f0: 0481 a13d bf81 29be fa3e cc3d 0d42 4bbd
00000200: 36a3 babd f618 1dbd 2b5a 02bd 9bb8 c8bd
00000210: 553b eebc 08c7 2bbe f2f6 133c 5c54 17bd
00000220: 5a80 d43c 51fa 3b3d 7014 e0bd 5867 08bc
00000230: 79ab e6bd 3590 01be 1217 523d 6d13 e03c
00000240: e036 0abd e4c5 98bd 39ad cb3d d4ba 5a3d
00000250: b685 04bd ed40 32be 9323 273d 4a17 253d
00000260: dbae cbbc 590c e6bd f6fd 06be 4fd7 f4bd
00000270: 61b4 26be 00f8 4abe 9967 b0bd 017a a7bc
00000280: 3d3a 123d 8c53 953d 490b eabd 61ec 373e
00000290: f822 0ebe d081 6e3e 4b6d 36bd 7d95 d4bd
000002a0: 7b74 2bbd 0c12 43bd eb28 afbd 5eda 65bb
000002b0: a1d3 da3d a97e c13d a571 19be 48b7 c03d
000002c0: 76d7 d5bc 876d 0b3b c080 db3d 603f fb3c
000002d0: e9a9 80bd 403c 813e b82e 4a3d 320f 2f3e
000002e0: 4ae8 1dbe 0599 623d 96ae 343d ca14 65bc
000002f0: 526e a23c 9c67 2ebd 30bb b039 1994 dbbd
00000300: 9a7e 1c3d 2c2b cabe fff3 85bd 0354 12be
00000310: 1edb 703a 824b 45be f0d1 3fbe 84d8 803d
00000320: 68cf afbd b70c 8abc 88e6 96bd f393 e43e
00000330: c8f6 073e c7b6 cf3e 5125 06bc 894c c33e
00000340: 8275 a2bb 8c5a d03e 79b3 d2bd 0d50 0abe
00000350: da8f 01be 732b a2be ee74 863d 667b 333e
00000360: 7269 bbbd 3d6c 7f3e cc0f fbbd 61fa 473d
00000370: 8dfc ac3c 9163 e73b b3f0 e3bb 959d 10bd
00000380: b224 94bd 122a cbbd c898 09be 12f1 a73e
00000390: 0a95 dc3d f7f3 9cbe afec 993a ae9b e0be
000003a0: d23b 41bd f429 953e c83d 843d dc78 c33d
000003b0: 3b05 9fbc d579 15be 7474 0dbe 8fee d4bd
000003c0: 3a1d ea3c f52a 9e3d 0aaf f0bd d888 2b3e
000003d0: b77b 33bd 97d4 a1ba 84eb 783d d27c ce3d
000003e0: 485d c53b 158d ed3d 4d93 e6bc f8df c6bd
000003f0: 9e30 03be e9e2 cfbd 067f 68bd c883 cc3d

functional_1/dense_1/Relu;functional_1/dense_1/BiasAdd f4 [256]
0.0 0.13547234 -0.02781092 -0.03914297 -0.09924568 -0.011646142 -0.01001582 -0.023068048
-0.035515573 -0.008843306 0.0 -0.027692867 -0.03868777 -0.052288353 -0.019085374 0.0
0.0 -0.05331222 0.0 -0.16343224 0.0 -0.020177672 0.0 -0.024164809
0.0 -0.012670193 -0.04134288 -0.022333601 -0.010115618 -0.006683868 -0.00849568 -0.010787873
0.0 0.0 -0.008358215 -0.012861607 -0.020182196 0.0 0.0 0.0
-0.033091795 0.0 0.0 -0.0028979618 -0.080375664 0.0 -0.017729415 -0.006915644
-0.008992482 -0.0828894 0.0 -0.008554093 -0.022384498 0.0 -0.035263587 -0.013310553
0.0 -0.03919554 0.0 0.0 -0.023779845 0.0 -0.05436118 -0.0076604984
0.0 0.0 -0.08242251 -0.008618284 -0.01075431 0.011621199 -0.050735634 0.042728543
-0.014208218 -0.008275127 0.0 0.0 0.0 -0.004785799 -0.005993248 -0.010525225
-0.018084405 0.0 -0.0071189287 0.09685869 -0.061820433 0.0 0.0 0.0
-0.02706059 0.0 0.0 -0.0073559615 0.0 -0.0128184045 -0.009429711 0.0
-0.008133124 -0.007736782 -0.021584412 0.13120362 0.0 0.0 0.09782113 0.0
-0.013419848 -0.033753317 -0.017174048 -0.00043067292 0.0 -0.014906976 -0.044222888 0.0
-0.02581223 0.0 0.00045589797 -0.0047231433 -0.02508822 -0.0060243574 -0.01739936 0.0
-0.019051462 -0.025174923 -0.027932808 0.0 0.0 -0.044303518 -0.0058844113 0.0
0.0 0.0 -0.019183483 0.0 -0.016626447 0.019966023 -0.025816625 0.014071549
-0.037991244 0.0 0.0 -0.0074793994 -0.0093418695 -0.014060237 -0.044953655 -0.0048440374
0.0 -0.010411071 0.0 0.0 -0.009385778 -0.058801558 0.0 0.0
0.0 0.0 0.13317604 -0.010387501 0.0 -0.013448965 -0.09655256 -0.070138566
-0.030466717 0.0 0.0 0.0 -0.019267831 -0.01923747 0.0 -0.12413838
-0.012053371 -0.011988967 0.0 -0.04127965 -0.017549941 0.0 -0.039645467 -0.02187728
-0.01890026 -0.06278808 -0.0069549954 0.0 0.0 -0.0046022823 0.0 -0.016037688
0.0 -0.020785881 -0.03001575 -0.0048922854 0.0 -0.01684515 -0.017459003 0.0
0.0 0.0 0.0 -0.0033472192 -0.027365362 0.0 -0.0135096805 -0.07705571
-0.007845791 0.0 0.0 -0.018678857 -0.039610073 0.0 0.0 0.0
-0.04437109 0.0 0.0 -0.024116108 0.0 -0.01582696 0.0 -0.0130742295
-0.010777152 0.0 0.0 -0.02965074 9.8947894e-05 0.0 0.0 0.0
-0.005300886 -0.008150054 -0.015435467 0.0 -0.01990351 -0.0348779 0.010303761 -0.06824876
-0.025086302 -0.020923907 -0.021543747 -0.014286403 0.0 0.0 0.0 0.0
-0.0060034893 0.12467746 0.0 -0.020111427 0.0 -0.012102517 0.007898905 -0.015189869
0.0 -0.015026672 -0.011136141 0.0 0.0 -0.007001286 0.0 -0.010960905
00000000: 0000 0000 43b9 0a3e bad3 e3bc 6154 20bd
00000010: 5241 cbbd 76cf 3ebc 6519 24bc 34f9 bcbc
00000020: c778 11bd 84e3 10bc 0000 0000 27dc e2bc
00000030: 1177 1ebd 502c 56bd ee58 9cbc 0000 0000
00000040: 0000 0000 ea5d 5abd 0000 0000 c85a 27be
00000050: 0000 0000 a54b a5bc 0000 0000 47f5 c5bc
00000060: 0000 0000 a496 4fbc 2757 29bd f5f4 b6bc
00000070: fabb 25bc 5904 dbbb 7731 0bbc 9ebf 30bc
00000080: 0000 0000 0000 0000 e5f0 08bc 7db9 52bc
00000090: 2255 a5bc 0000 0000 0000 0000 0000 0000
000000a0: 438b 07bd 0000 0000 0000 0000 bbeb 3dbb
000000b0: ff9b a4bd 0000 0000 473d 91bc a09c e2bb
000000c0: 3455 13bc ebc1 a9bd 0000 0000 7726 0cbc
000000d0: b25f b7bc 0000 0000 8d70 10bd 8114 5abc
000000e0: 0000 0000 818b 20bd 0000 0000 0000 0000
000000f0: f3cd c2bc 0000 0000 d4a9 5ebd eb04 fbbb
00000100: 0000 0000 0000 0000 22cd a8bd b433 0dbc
00000110: d832 30bc d766 3e3c 2bd0 4fbd 2004 2f3d
00000120: 96c9 68bc 6694 07bc 0000 0000 0000 0000
00000130: 0000 0000 31d2 9cbb 0263 c4bb fe71 2cbc
00000140: bf25 94bc 0000 0000 e745 e9bb d95d c63d
00000150: 6c37 7dbd 0000 0000 0000 0000 0000 0000
00000160: 2cae ddbc 0000 0000 0000 0000 470a f1bb
00000170: 0000 0000 4904 52bc 137f 1abc 0000 0000
00000180: cb40 05bc d584 fdbb cbd1 b0bc 3e5a 063e
00000190: 0000 0000 0000 0000 7256 c83d 0000 0000
000001a0: ecde 5bbc eb40 0abd 97b0 8cbc f1cb e1b9
000001b0: 0000 0000 643c 74bc 0f23 35bd 0000 0000
000001c0: 2b74 d3bc 0000 0000 9705 ef39 99c4 9abb
000001d0: d085 cdbc f967 c5bb 1a89 8ebc 0000 0000
000001e0: d011 9cbc a43b cebc 58d3 e4bc 0000 0000
000001f0: 0000 0000 9b77 35bd 05d2 c0bb 0000 0000
00000200: 0000 0000 0000 0000 ae26 9dbc 0000 0000
00000210: 3034 88bc c98f a33c 637d d3bc 5b8c 663c
00000220: b59c 1bbd 0000 0000 0000 0000 c015 f5bb
00000230: a40e 19bc e95c 66bc 5321 38bd bbba 9ebb
00000240: 0000 0000 3293 2abc 0000 0000 0000 0000
00000250: cec6 19bc e7d9 70bd 0000 0000 0000 0000
00000260: 0000 0000 0000 0000 4d5f 083e 5630 2abc
00000270: 0000 0000 0c59 5cbc 59bd c5bd cfa4 8fbd
00000280: 5695 f9bc 0000 0000 0000 0000 0000 0000
00000290: 92d7 9dbc e697 9dbc 0000 0000 433c febd
000002a0: 817b 45bc 5f6d 44bc 0000 0000 da14 29bd
000002b0: e5c4 8fbc 0000 0000 4963 22bd fb37 b3bc
000002c0: b8d4 9abc 0997 80bd bbe6 e3bb 0000 0000
000002d0: 0000 0000 bece 96bb 0000 0000 7861 83bc
000002e0: 0000 0000 2747 aabc 97e3 f5bc 774f a0bb
000002f0: 0000 0000 d7fe 89bc 2f06 8fbc 0000 0000
00000300: 0000 0000 0000 0000 0000 0000 055d 5bbb
00000310: 532d e0bc 0000 0000 b557 5dbc 62cf 9dbd
00000320: a28b 00bc 0000 0000 0000 0000 6704 99bc
00000330: 2c3e 22bd 0000 0000 0000 0000 0000 0000
00000340: 76be 35bd 0000 0000 0000 0000 258f c5bc
00000350: 0000 0000 8aa7 81bc 0000 0000 4b35 56bc
00000360: a792 30bc 0000 0000 0000 0000 1ce6 f2bc
00000370: 3f82 cf38 0000 0000 0000 0000 0000 0000
00000380: 0eb3 adbb ce87 05bc 0ae5 7cbc 0000 0000
00000390: b00c a3bc 21dc 0ebd 1bd1 283c 02c6 8bbd
000003a0: ca81 cdbc 9d68 abbc 837c b0bc 8411 6abc
000003b0: 0000 0000 0000 0000 0000 0000 0000 0000
000003c0: ebb8 c4bb e556 ff3d 0000 0000 b8c0 a4bc
000003d0: 0000 0000 a349 46bc 696a 013c eede 78bc
000003e0: 0000 0000 6e32 76bc 5c74 36bc 0000 0000
000003f0: 0000 0000 0b6b e5bb 0000 0000 5e95 33bc
